data.pth (torch, 6167 bytes, 6 tensors)

l1.weight f4 [8, 63]
000000 ce fe 4a 3e b0 01 26 be 6e a3 f0 3e 53 8d 7c bf
       0.19823763 -0.16211581 0.46999687 -0.98653144
000010 9e 1c b0 3d e8 c5 6e 3f b2 d7 2f be c9 50 69 3f
       0.08599208 0.9327073 -0.17172125 0.91138893
000020 38 c5 6d 3e 6b e9 49 bf 9d 8d 3e 3f 20 e2 33 3c
       0.23219764 -0.7887179 0.74434835 0.010979205
000030 ea 76 1c bf d4 cf c0 be 74 cb 44 3f 12 5d a4 be
       -0.6111895 -0.3765856 0.76872945 -0.32102257
000040 ae 13 17 3f 65 99 06 bf 8d 8f 69 bd 53 f6 75 3e
       0.59014404 -0.5257781 -0.057021666 0.24019746
000050 7f 25 a2 3f 3b d9 5e be bd 75 0f bf 65 ff cf be
       1.2667693 -0.21762554 -0.5603903 -0.40624538
000060 20 4d 04 bf 2f 5f 5c be 7b 48 5c bf a3 2b 64 bd
       -0.51680183 -0.21520685 -0.86048096 -0.055705678
000070 89 7e 3b 3e df 05 c3 bd 6b ff 70 bf fc f2 ef 3e
       0.18309988 -0.09522604 -0.94139737 0.4686507
000080 6d 3e 9b 3f 8e 17 53 3f 06 26 3d be 9b f4 b8 be
       1.2128426 0.82457817 -0.18471536 -0.3612412
000090 fa 20 d2 3e 16 36 18 3f b7 d8 b3 be 63 6d 48 be
       0.41040784 0.5945753 -0.35126278 -0.19572978
0000a0 e8 52 ff bd a2 8c f8 bd eb cc 80 bf bf cd 17 be
       -0.12466985 -0.121361986 -1.0062536 -0.1482458
0000b0 b1 e6 dd 3e 13 04 d3 be e7 01 b4 be b5 39 e5 3d
       0.43340066 -0.41214046 -0.351577 0.11192647
0000c0 11 5e c8 be 99 87 cc be 61 dc a2 bc a0 4e ef be
       -0.39134267 -0.39947203 -0.019880475 -0.46739674
0000d0 c4 91 6e 3f 2d 0d 5e be 13 b4 46 bf 72 87 2e be
       0.9319117 -0.21684714 -0.7761852 -0.17043856
0000e0 0d 31 74 be 94 92 4c bf c4 09 b1 be ab 05 a5 bc
       -0.23846836 -0.7991116 -0.34577763 -0.020144304
0000f0 80 6a cc be 40 2b 34 3f a6 1e ec 3e f6 d7 36 bd
       -0.39925003 0.70378494 0.46117133 -0.04463955
000100 b5 a6 ae 3e 41 8d 0d 3f 64 0f 7e bf f8 3b c2 3d
       0.34111562 0.5529366 -0.99242234 0.094840944
000110 d1 54 86 3f f6 f2 45 3f e8 cc 77 3f 67 26 8a be
       1.0494634 0.77323854 0.9679704 -0.26982424
000120 b6 6e 83 3f 97 a6 60 3f b8 a9 84 be 09 97 2a bf
       1.0268161 0.87754196 -0.25910735 -0.6663671
000130 22 77 a9 3e ca 17 5d 3f c9 af c2 be a5 ab 05 3f
       0.33098704 0.86364424 -0.38024738 0.52215034
000140 cf 10 bf be b3 78 c2 be 9e f0 b8 be b1 18 8d 3f
       -0.3731751 -0.3798271 -0.36121076 1.102316
000150 84 19 b2 be 35 46 3a bf bb 2d 3a bf d9 cc 39 bf
       -0.34785092 -0.7276338 -0.7272603 -0.725782
000160 1e be 8d 3e 04 dd d9 3e 7f 42 5d be 3a 11 03 bf
       0.2768411 0.42551434 -0.21607397 -0.5119816
000170 85 01 7d be b4 b0 8e 3f e1 d0 ba 3e b0 1c ae bd
       -0.24707611 1.1147676 0.36487487 -0.085015655
000180 94 79 3b 3f e2 fe 8c be 56 17 99 3e e1 df 83 be
       0.7323239 -0.2753821 0.29900616 -0.25756744
000190 2f 99 2d bf ee de c8 3e a2 31 3b 3f b8 e4 0a 3f
       -0.67811865 0.39232582 0.7312261 0.5425525
0001a0 3e e2 8a be 68 b0 7c bf 39 a8 ca be 6a 96 e6 3e
       -0.27125734 -0.98706675 -0.3958147 0.45036632
0001b0 3b 3b 2d bf fb 9f 02 3f 2c c9 e7 be df 18 be be
       -0.67668504 0.5102536 -0.4527067 -0.3712835
0001c0 1d 23 94 3e 31 bb b1 3e 9a fa 39 bf 18 25 a3 3f
       0.2893304 0.34713128 -0.7264801 1.2745695
0001d0 15 a5 29 be 11 1f 67 bc a9 45 89 be 6d 5a 33 bf
       -0.1656688 -0.014106528 -0.2681096 -0.70059854
0001e0 0a 34 f5 3e 83 19 50 be 4d 21 2f 3e 27 38 92 be
       0.47891265 -0.20322232 0.17102547 -0.28558466
0001f0 e5 93 70 3f bb 66 88 3e 71 51 fe 3e 82 b1 12 3f
       0.9397567 0.26640877 0.4967151 0.57302105
000200 30 b8 8b 3e b6 d5 67 bf 35 22 16 bd 74 ed 51 be
       0.2728896 -0.9056047 -0.036653716 -0.20500737
000210 73 c7 67 3f 12 cf 01 3f 22 d1 10 3f 4e 89 ab 3e
       0.9053871 0.5070659 0.5656911 0.33503193
000220 a4 f9 a8 3e 4f 3f a9 3e 99 1d bc 3e 00 de d7 3e
       0.3300296 0.33056113 0.3674133 0.4216156
000230 e1 13 11 3f e4 93 9b 3e 14 e4 ec 3e 9a 0a 3c 3e
       0.5667096 0.3038627 0.4626776 0.18363419
000240 b6 4b 29 bf 48 7c 83 3f ca 9d fa be 56 24 0f 3e
       -0.6613115 1.0272303 -0.48948509 0.13978705
000250 db 9e 40 3f 4c aa 46 3f a5 c1 1f 3f 58 b5 f0 3e
       0.75242394 0.776036 0.62404853 0.47013354
000260 a9 1c 5b 3f 78 de bb 3d cb f5 28 3f e2 4a ef 3e
       0.85590607 0.09173292 0.6600005 0.4673682
000270 1b f3 e6 be ea 79 82 be 1e b1 54 bf 88 60 f7 3e
       -0.4510735 -0.25483638 -0.8308276 0.48315835
000280 12 ee 3b 3b f3 8f 1e 3f 97 c5 0c 3f bd 6c 3a bf
       0.0028675837 0.619384 0.54989 -0.7282217
000290 2d 5d 2a 3f c0 86 4e 3f 06 2e 77 3f b9 40 c6 3e
       0.66548425 0.8067436 0.965546 0.38721254
0002a0 b0 5a 08 3f 0c f3 08 3f 75 32 00 3f 39 33 e1 3e
       0.5326338 0.5349586 0.5007699 0.43984392
0002b0 88 86 58 3f 38 dc 2b 3f 34 0d 51 3e 4b dd bb 3e
       0.8458028 0.671329 0.20415193 0.3669227
0002c0 1d 32 03 3f 38 e3 12 3f 45 6f 8e bf 8e 5e c7 3d
       0.5124834 0.5737796 -1.1127707 0.09734832
0002d0 d0 c9 08 bf 73 eb a2 3e 82 d3 83 3e 83 1c 33 3f
       -0.5343294 0.31820258 0.25747305 0.6996538
0002e0 bf eb b1 3e 39 13 9d 3d c8 01 db 3d a4 6e 06 3f
       0.34750172 0.07669682 0.10693699 0.52512574
0002f0 d9 47 4e 3e 2b 5b 31 be df 60 fe be f3 4e 02 bf
       0.20144595 -0.17319934 -0.49683282 -0.50901717
000300 80 f1 83 3e b8 99 11 3d 60 18 52 3f 07 46 71 bf
       0.25770187 0.03554699 0.82068443 -0.9424748
000310 0f b1 46 3f 4e 0c 97 bd 59 7f 9f 3e da 50 50 3f
       0.7761392 -0.07375394 0.31151846 0.8137337
000320 e7 6c 32 3e 42 1a e2 3e 9c 8c 06 3f 28 a8 f4 3e
       0.17424355 0.44160658 0.525583 0.47784543
000330 c8 2d 99 3e 6e 48 0a 3f 0d 02 a1 be 7a 0c 58 3e
       0.2991774 0.5401677 -0.31446877 0.2109851
000340 a3 96 0d bf 2c eb 58 bf 20 fc 23 3c 6d 1e 9c 3f
       -0.5530798 -0.84733844 0.010008842 1.2196785
000350 b8 80 84 3f f9 81 76 3f 13 c6 0e bf 3a cb 42 3f
       1.0351782 0.9629207 -0.5577099 0.7609135
000360 ae 46 71 bd c5 9f a9 3d db dd c5 3e 36 ef 85 bf
       -0.058905296 0.08282427 0.38645825 -1.0463626
000370 48 76 17 be 4a ee bd be 75 6b 26 3f 73 59 db 3c
       -0.14791214 -0.37095863 0.65007716 0.026776051
000380 8f 49 00 3f dc c4 2b be 1c 29 f0 3e 69 23 cb 3e
       0.5011224 -0.16774315 0.46906364 0.39675453
000390 8e 8c 82 bf 6f 0c 7d bf 95 3c 72 3e dd 94 15 bf
       -1.0199144 -0.988471 0.23655923 -0.5843027
0003a0 89 47 d4 3e 99 b0 c9 3e 26 7c 01 3f bc 9b 1a 3f
       0.41460827 0.39392546 0.5058006 0.6039388
0003b0 fe 60 88 bb 2b bb 18 be 10 7e fc 3e b2 d9 1c bf
       -0.004161953 -0.14915149 0.49314928 -0.61269677
0003c0 7e fb bf 3e b3 6b 19 bf cc 03 02 be d9 d3 b5 3f
       0.3749656 -0.5992996 -0.12696761 1.4205276
0003d0 a8 24 89 3e 6f 00 38 bf 52 46 11 3f 1c 51 9c be
       0.2678578 -0.7187566 0.56747925 -0.30530632
0003e0 e4 61 eb 3d 24 d4 ae bd 68 5b 19 3f d7 20 07 be
       0.114932805 -0.08536556 0.599051 -0.13196121
0003f0 d6 d3 0c 3f 2b a3 1d 3f 53 e0 2e 3f fc 96 48 bf
       0.55010736 0.615771 0.6831104 -0.78355384

l1.bias f4 [8]
000000 d7 c4 70 3f 75 32 3a 3f 7b 73 8e 3f 09 97 82 3f
       0.94050354 0.7273324 1.1128992 1.0202342
000010 3b 9b 48 3f a1 39 5c 3f 5a fa 44 3f f1 84 86 3f
       0.7836186 0.86025435 0.76944506 1.050932

l2.weight f4 [8, 8]
000000 6d 0e 82 be ac 80 5f be 12 1c 6f be 60 18 64 3c
       -0.2540163 -0.21826428 -0.23350552 0.013921827
000010 fe c1 a7 be 86 6b 7b be 88 db 83 be e4 e9 e0 bd
       -0.32765192 -0.24552736 -0.25753427 -0.10982111
000020 ff f7 13 3f 38 f8 83 3f aa 0c 8f 3f 74 59 2c bf
       0.57800287 1.0310125 1.117574 -0.67323995
000030 9b e3 12 40 94 99 0e bf 9a f4 9c bf e6 20 c9 3f
       2.295142 -0.5570309 -1.2262146 1.5713165
000040 49 3c b0 bf d8 0e 8c bf a0 01 d2 3f b3 c4 0f 40
       -1.3768398 -1.094203 1.6406746 2.2463806
000050 d9 7b 41 bf 86 79 63 3c 48 bc ca 3f 7e 0a 20 40
       -0.755796 0.013883954 1.5838709 2.5006404
000060 e6 bb ba be c5 94 85 3e 9f 6c eb 3f 35 c8 d4 3f
       -0.3647148 0.26090065 1.8392524 1.6623598
000070 6c e3 12 bf fb 6b f1 3f 2d 1c a9 bf 9d 48 f2 be
       -0.5737827 1.8861078 -1.3211724 -0.47321025
000080 18 a0 f1 3f 2a 37 19 bf d8 84 55 3f 69 de 2d 3f
       1.8876982 -0.598498 0.8340583 0.67917496
000090 b3 05 9d 3f 0d 2d 97 3f 0e d6 06 40 6e b8 a1 bf
       1.2267364 1.1810623 2.1068149 -1.2634408
0000a0 8b 68 a9 be a9 ae ab 3f 2c c8 89 3f 69 7a a0 bf
       -0.33087572 1.3412677 1.0764213 -1.2537357
0000b0 74 4b ea 3f de 5b 46 3f 53 49 ad bf d4 e8 26 3f
       1.8304276 0.7748393 -1.3538002 0.6519902
0000c0 1f b4 bd 3f 57 5d b9 3e b6 01 d0 3f 28 ed ec 3e
       1.4820594 0.36204025 1.6250522 0.46274686
0000d0 bc 4c cf 3c dc 0c 09 40 e7 9c 50 3f 0f 2c d3 bf
       0.025305144 2.1414099 0.81489414 -1.6497821
0000e0 1d 4b ea 3f a4 6e f7 3f fe 86 e8 be c1 c5 a7 3f
       1.8304173 1.933064 -0.4541549 1.3107225
0000f0 d6 e4 3a 3e e6 10 f0 be 61 c8 61 bf 70 e8 40 3e
       0.18251356 -0.46887892 -0.8819638 0.18838668

l2.bias f4 [8]
000000 d8 30 14 bd c0 64 14 3f e5 0c 8b 3f ad e8 00 3e
       -0.036179394 0.5796623 1.086331 0.12588759
000010 de d1 d9 3e 90 92 bd 3d 40 4e 46 3e 61 8f 18 3e
       0.42542928 0.0925647 0.19365788 0.14898445

l3.weight f4 [19, 8]
000000 f0 ba af 3c 38 d3 1e bd 46 79 e7 bf 07 75 46 3f
       0.021451443 -0.038775653 -1.8083885 0.7752232
000010 a3 10 31 3e b7 dc f6 be 84 ac d6 3d 4f d3 77 3e
       0.17291503 -0.48215267 0.104821235 0.24201702
000020 53 88 82 3e 72 b7 db 3e 2b 33 34 3f ac 27 33 c0
       0.25494632 0.42913395 0.70390576 -2.7992964
000030 4f 17 06 bf 0b a0 14 c0 9d 33 96 bf ce 29 93 be
       -0.52379316 -2.3222682 -1.1734501 -0.28742832
000040 08 93 0b 3d ef 59 95 3e ee 4e 3b 3e 7f 52 08 c0
       0.034075767 0.29170176 0.18291828 -2.1300352
000050 6f fc e7 3e 8a d9 0d bf 54 23 66 be a4 2a 18 c0
       0.4530978 -0.55410063 -0.22474414 -2.3776026
000060 e0 ff 82 be 0b 3c d3 bf 05 f1 80 3f c0 bc f2 bf
       -0.25585842 -1.6502699 1.0073553 -1.8963852
000070 e2 d9 f7 3e 77 bc b5 bf e1 9d a4 bf 1e f5 48 c0
       0.4840842 -1.419814 -1.2860681 -3.1399608
000080 6c 6a 98 bd ce a4 a7 be 07 71 b2 be 15 67 c9 be
       -0.07442173 -0.32742923 -0.34851858 -0.39336458
000090 ad 8f 33 3d e5 ee be bf d5 f3 d0 3a 41 8d f9 3e
       0.04383819 -1.4916655 0.0015941808 0.4874058
0000a0 9e fb 5b 3e 23 d1 c5 3e 53 8c 8e bd 90 86 05 bf
       0.21482703 0.3863612 -0.069603585 -0.5215845
0000b0 97 a7 b1 bf e3 b5 65 3d 68 33 83 bf e9 e1 e6 3d
       -1.3879269 0.056081664 -1.0250063 0.11273558
0000c0 f0 bb 2a 3d c6 84 c4 bd 23 75 59 bf 1d 28 5c be
       0.041683137 -0.09595637 -0.8494436 -0.21499677
0000d0 74 4c 16 3f 01 94 b6 be d1 ac b8 3e 22 54 a4 bf
       0.5871041 -0.35659793 0.36069348 -1.2838175
0000e0 a0 f6 6e 3c a9 f2 d6 3e 72 3f 12 c0 79 44 cd bf
       0.014585167 0.4198201 -2.2851224 -1.6036521
0000f0 55 43 3a 3e 04 f2 b4 be e4 9c ee 3e 9b 0a 02 3f
       0.18189748 -0.35340893 0.46604073 0.5079743
000100 46 66 03 3e 80 98 82 be bc c7 14 3f 4b ff d9 bd
       0.12831983 -0.25506973 0.5811727 -0.106443964
000110 09 5b d0 bd 25 0c 00 c0 e4 ec 4a be 40 cd c2 bf
       -0.101736136 -2.0007412 -0.19816929 -1.5218887
000120 c2 ab 63 3e 1a 10 2a 3f 15 0c ba 3e 53 88 18 c0
       0.22233489 0.6643082 0.36337343 -2.3833206
000130 88 cb ae bf 1e c1 c4 3e 4c c2 9a bf 9a f1 f9 bf
       -1.3655863 0.38428587 -1.2090545 -1.9526856
000140 10 60 ed bc bc 22 4d 3f bf dc 76 bf 1e da 03 c0
       -0.02897647 0.80131125 -0.9643058 -2.0601878
000150 c9 dc e8 bf 6c 4c 50 3f 2c 0b b9 bf 04 b3 83 3d
       -1.8192378 0.8136661 -1.4456534 0.06430629
000160 52 c4 42 be f8 fc 80 bf 5c 8e 27 bd 68 e6 25 3f
       -0.19020203 -1.00772 -0.04090725 0.648047
000170 62 c0 1c bf 54 4a be 3d 88 e2 33 3e e2 34 28 bf
       -0.6123105 0.09291521 0.17566884 -0.6570569
000180 fa de 22 3e 99 d9 d6 be 01 de cb bf 7e 38 8c bf
       0.15905371 -0.4196289 -1.5927125 -1.095474
000190 ab 26 4e 3f de 80 e2 bf e4 6f 38 3f 43 bd 04 bb
       0.8052775 -1.7695577 0.7204573 -0.002025441
0001a0 ec 0a 8a 3d 68 82 06 c0 65 20 01 3f 59 fe 08 c0
       0.067403644 -2.1017094 0.50440055 -2.1405241
0001b0 24 9d be 3e d7 f5 07 c0 73 71 ee 3e 1a bb 37 bf
       0.37229264 -2.1243799 0.4657093 -0.7176987
0001c0 81 64 93 be 38 11 94 3e 2a 55 f7 3e 1a 04 59 3e
       -0.28787616 0.28919387 0.48307163 0.21192971
0001d0 e6 6f b3 bf fc be eb bd 43 98 2b bf 22 e4 42 c0
       -1.4018524 -0.11511037 -0.6702921 -3.0451741
0001e0 6d 81 9c be 83 a1 04 c0 e7 66 79 ba 50 c3 29 3f
       -0.30567494 -2.072358 -0.000951393 0.6631365
0001f0 b5 39 be 3e 04 d0 fb bf e2 9e cf 3e 7f 02 16 c0
       0.37153402 -1.9672856 0.40550905 -2.3439023
000200 7a 1a 64 3e 20 a1 0d 3f de 71 a6 bf c1 81 91 bd
       0.22275725 0.5532398 -1.30035 -0.07104827
000210 29 41 8e bd e2 b1 1a 3f ab 08 96 be cf 9b 06 bf
       -0.06946022 0.6042768 -0.29303488 -0.52581495
000220 bf 29 b4 3e 9e 62 49 3f 3d 02 17 c0 47 08 94 bf
       0.351881 0.786661 -2.3595116 -1.1565026
000230 bd 16 9a be fb bf 6c 3e 6d 0f 91 bf 59 bb 47 3f
       -0.30095473 0.2312011 -1.1332833 0.78020245
000240 90 1c 50 bd 86 12 fd be ec 7d c4 3e 06 18 c1 3e
       -0.05080849 -0.49428195 0.3837732 0.3771364
000250 89 cb d4 bf a0 bb bf bf 7f 4a be bf 61 d3 dd 3e
       -1.6624614 -1.4979134 -1.4866484 0.43325332

l3.bias f4 [19]
000000 7a 38 f0 be 07 1d 63 3e 93 36 66 3c 9f 30 fc 3e
       -0.46918088 0.22179042 0.014051097 0.49255845
000010 2d e6 f7 3b e9 07 10 3c a3 f9 be be f6 71 58 3e
       0.007565281 0.008790948 -0.37299833 0.21137223
000020 70 0c a7 be b8 ca 1d be d4 d6 a4 3e 28 53 76 be
       -0.32626677 -0.15409362 0.3219515 -0.24055159
000030 a1 d6 ed bc b3 64 ee bd af fd 39 3e 88 0e 86 3d
       -0.029033007 -0.116403006 0.18163179 0.0654574
000040 b3 5b d9 be b2 16 6e 3e 7c fb 68 be
       -0.42452773 0.23250845 -0.22752184
